checkpoint/bci2a/repeat1_sub1_epochs3_lr0.0005_wd0.1.pt (torch, 48614 bytes, 17 tensors)

weight f4 [22, 1, 22, 1]
000000 37 15 8f bd 5a f9 3e bd 10 81 ff 3c c4 41 85 bc
       -0.06986468 -0.04662452 0.031189471 -0.016266711
000010 f1 4f 39 bd 0d 3d 8e bd f1 d7 b9 3d 6c dc d9 bc
       -0.045242254 -0.06945238 0.09074391 -0.026594363
000020 ab 5c c1 3d 8a 99 99 3d df d4 bc 3d 57 fb b3 bd
       0.09441503 0.074999884 0.092202894 -0.08788174
000030 7d ef bf 3d 61 ab b8 bd 83 ed 73 bd 49 05 10 3e
       0.09371851 -0.09017063 -0.05955268 0.14064516
000040 cf d4 c8 3b fd 23 7d bd a1 8e 97 bd 1e 86 c3 3d
       0.0061288844 -0.0618019 -0.07400251 0.09547065
000050 52 f4 f3 bd 0d d9 87 3c cb 12 e5 3d 5e 33 22 3d
       -0.11911835 0.01658299 0.11185225 0.03959977
000060 1b c1 df 3c cb d0 ab 3d da f7 8d bd fd ed 82 bd
       0.02731376 0.083894335 -0.069320396 -0.06393049
000070 c7 8c 37 bb cc 88 27 3d 43 90 c2 3c 70 e9 dc bd
       -0.0028007494 0.040901944 0.02375043 -0.10786712
000080 b3 29 23 bd 7e 0e e6 3c 47 2f 39 3d 35 e4 a0 bd
       -0.03983469 0.028083082 0.045211103 -0.07856027
000090 b7 0a f2 bc 85 f6 e1 bd 5e 6e 12 bb 60 c3 3c 3d
       -0.029546125 -0.11033348 -0.0022343616 0.04608476
0000a0 b1 97 c0 3c 47 38 bb ba 13 4b ec 3c 22 f6 98 3d
       0.023509832 -0.001428374 0.028844392 0.07468821
0000b0 06 c3 cf 3d 14 dc 3c 3d cd b9 97 bd e0 66 f5 3d
       0.1014462 0.04610832 -0.074084856 0.119825125
0000c0 53 7d da bd b5 70 83 3d e8 7e b0 3c 24 3f be bd
       -0.10668435 0.064179815 0.021544889 -0.09289387
0000d0 2d d3 b5 3d 15 cc 46 3d 42 b9 7b bc 4d e9 49 bd
       0.08878169 0.04853447 -0.015363993 -0.04929476
0000e0 30 e8 af bd d2 2e 60 bc 4b 57 aa bd 8f 9e 1a 3d
       -0.08589208 -0.013683038 -0.08317431 0.03774887
0000f0 f8 17 c9 bc 12 2e 89 bd ca 56 2a 3d 59 31 3d bd
       -0.024547562 -0.0669824 0.041586675 -0.04618964
000100 9c c2 1d 3d 61 41 31 3d d3 c4 56 bc 92 30 b8 bc
       0.038515672 0.04327524 -0.01310845 -0.022484098
000110 c1 50 1b bd b6 38 6c bb e9 f2 32 3c 5b 6e bd 3c
       -0.03791881 -0.0036044545 0.010922172 0.02312391
000120 28 95 d9 3a 17 98 a9 3d 19 82 19 3d ae 7a e6 bb
       0.0016600238 0.08280962 0.037477586 -0.0070336675
000130 43 e4 67 3d ad 68 9f bd e0 c0 03 3e 75 5a 75 3d
       0.05661417 -0.07783637 0.12866545 0.05990072
000140 a8 ee 7e bd 2b 1d 8b bd 16 80 e1 bc 0b 6d 99 bd
       -0.06223932 -0.06792673 -0.027526896 -0.074915014
000150 2c 91 88 bd bb d6 19 3b 11 28 c0 3d 4d 12 2b bb
       -0.06668314 0.0023473937 0.09382642 -0.0026103437
000160 9a 12 34 bc da e1 dc 3c 4c 9c 9d 3d b1 d8 97 3c
       -0.010990763 0.026963163 0.07695827 0.018535944
000170 67 89 2d 3d 94 6c 00 bd c9 d2 5f bd a8 d5 c2 bd
       0.042367365 -0.03135355 -0.05464438 -0.09513408
000180 36 87 72 bd 2d e1 1a 3d 75 98 a7 3b f8 fa b4 bc
       -0.05921098 0.0378124 0.00511461 -0.022092327
000190 f7 6a 74 bd 0c e5 8b ba a4 3c 70 3d 85 bc 39 bd
       -0.059672322 -0.001067312 0.05865158 -0.0453458
0001a0 a0 5b 6f bd 34 f2 fa 3b bd 87 bb 3c 41 9c 4e 3d
       -0.05843699 0.0076582674 0.022891873 0.050441984
0001b0 f0 46 33 3d c7 4f 99 3c 92 72 0c bd 79 f7 00 be
       0.043768823 0.018714799 -0.03428895 -0.12594403
0001c0 80 e3 ca bc 40 22 03 3e e2 e4 c5 3d 61 c6 66 bd
       -0.024766684 0.12806034 0.096627966 -0.056341533
0001d0 bd bd a8 bc 20 99 a3 3c b6 da 9c bd 05 f8 02 3e
       -0.020598287 0.019970477 -0.07658903 0.12789924
0001e0 ce 93 da bc d6 bf 22 be 4b 1b d3 3d 25 65 2d 3e
       -0.026681807 -0.15893492 0.1030794 0.16933115
0001f0 8a dd 9a 3d 8d 3d 72 bd bd c5 80 bd 47 37 ef 3d
       0.075617865 -0.05914073 -0.062877156 0.11680465
000200 48 de ee bd bb 3c 76 bd 9e f5 ff bd e7 60 ee 3d
       -0.116634905 -0.06011651 -0.1249802 0.116395764
000210 f3 f8 be bc 9c 6b 46 3d a9 80 25 bd 80 d8 59 3d
       -0.023312068 0.048442468 -0.040405903 0.053184986
000220 cc 95 d5 bc 7e d1 65 3d 03 66 8f 3d c6 58 65 bd
       -0.026072405 0.05610799 0.07001879 -0.055992864
000230 95 34 98 bd 13 15 91 3d 3b 5f b3 3d f5 82 c5 bd
       -0.07431904 0.07084098 0.08758398 -0.09644119
000240 49 b7 bf 3d 57 c9 1e bd f2 c7 7f bd 73 00 40 bd
       0.09361131 -0.03876623 -0.062446542 -0.04687543
000250 87 67 6a 3d b9 7f 31 bd ca fc 74 3d f0 b2 99 3c
       0.057227638 -0.043334696 0.05981139 0.018762082
000260 72 4a c3 bd 5b 96 4b 3d 4b e1 95 bd 9f 33 83 3d
       -0.09535684 0.049703937 -0.07318362 0.0640633
000270 5a 4f 89 3d 68 19 b7 3c 8d 09 31 3a f9 92 a7 bd
       0.06704588 0.022350982 0.00067534373 -0.0818233
000280 b6 94 87 bd be 38 36 3d a2 74 cc bd 1c e8 9f bd
       -0.06620161 0.044487707 -0.099831834 -0.07807943
000290 1c 7d 73 3d bb a4 85 3d cf 3e ba bc 1b e2 95 3d
       0.059445485 0.065255605 -0.022735028 0.07318517
0002a0 e6 ff b1 3d 32 0a 7c 3d 57 d3 85 bb fa d6 3c 3b
       0.08691387 0.06153316 -0.0040840316 0.002881466
0002b0 77 e3 05 be 97 72 1f bd 99 b3 58 ba 36 1d be 3c
       -0.13075052 -0.03892764 -0.0008266508 0.023207288
0002c0 9c 04 74 3c 82 e5 21 bc 50 03 ae 3c f7 68 4b bd
       0.014893677 -0.009881379 0.021241814 -0.04966065
0002d0 71 a0 74 bc cf bf d2 3c 5a 86 54 3b a5 15 00 bd
       -0.01493083 0.025726227 0.0032428713 -0.03127064
0002e0 2c c5 47 bd d3 46 cd 3b e4 44 ba bc 51 17 45 3c
       -0.048772022 0.0062645464 -0.022737928 0.012029485
0002f0 58 6a 51 3c 29 61 f1 3c 97 94 18 3d 92 44 3b 3d
       0.012781702 0.029465275 0.03725108 0.04571969
000300 b0 c5 60 bd 14 2c 93 bc f7 0f 4a 3d f7 d4 b4 bd
       -0.05487603 -0.017965354 0.04933163 -0.08829682
000310 dc c0 53 3d b2 c5 97 3c d2 49 02 3d 93 66 61 bd
       0.051697597 0.018526886 0.03180868 -0.055029463
000320 93 b1 31 bd d7 ef c1 bc 5a 24 3d 3c 69 c2 cf 3c
       -0.04338224 -0.023673935 0.011544311 0.025361257
000330 3a 2f 37 bc 88 d1 98 bc 6d 55 5e 3d 7b 9d 25 3d
       -0.011180693 -0.0186546 0.054280687 0.04043339
000340 72 19 41 bd 81 bc 52 3d 79 49 7b bc 64 39 57 3d
       -0.047143407 0.051449303 -0.015337341 0.052544966
000350 1e 38 a1 bc e5 be 2a 3c 1c 14 21 bc fe f0 3d bd
       -0.01968008 0.010421489 -0.009831455 -0.046372406
000360 15 8f e2 bc 50 61 bc bc f4 e3 26 3d c8 d1 fe 3c
       -0.027656117 -0.022995621 0.040744737 0.03110589
000370 81 00 35 3d 36 aa 23 3b 29 35 67 bd ad 7f 8d 3c
       0.044189934 0.002497328 -0.05644718 0.017272795
000380 da 75 a2 bc 15 17 84 3b 09 93 97 bb 12 8d 14 3d
       -0.019831587 0.004031072 -0.0046256823 0.036267348
000390 dc 31 2b bd 24 fe 47 3c e8 7c aa 3b 9d d2 a6 3c
       -0.041795596 0.012206588 0.0052028783 0.0203641
0003a0 83 b6 f8 bc ea 06 49 3d e8 5a 21 3b 97 2d 09 bd
       -0.030360466 0.04907886 0.0024620835 -0.033490743
0003b0 53 a4 9a 3c c9 49 36 bd 22 b4 10 bd 9e e6 d3 3c
       0.018877184 -0.04450396 -0.035328038 0.025866803
0003c0 3b cf 8e 3c ff 31 2c bc fc 92 5d 3c 12 0a 9e bc
       0.0174328 -0.010509967 0.013523813 -0.019291911
0003d0 94 21 98 3b 78 b5 3f bc 8a c9 fc 3b fd b9 ec 3c
       0.0046426747 -0.01170098 0.007714455 0.02889728
0003e0 ad a8 b4 3b 77 56 12 3d 26 30 23 bc f0 f5 15 bc
       0.005513272 0.03572699 -0.00996021 -0.009152874
0003f0 a6 eb aa 3c 18 64 56 bc 2c 5d d8 3a 82 53 0b b9
       0.020864319 -0.013085388 0.001650726 -0.00013287182

bias f4 [22]
000000 9a 04 cc b2 2f 11 5b 3c c2 96 59 bb f1 a8 76 b2
       -2.3750818e-08 0.013370796 -0.003320143 -1.4357497e-08
000010 f9 99 7e 39 7e 03 47 ba 07 0b 30 bc f6 cd 5d 3c
       0.00024280687 -0.0007591768 -0.010744817 0.013537874
000020 e1 20 9e bb fa 1b 92 bb 54 df 16 b4 90 bf d7 3b
       -0.004825697 -0.0044589015 -1.4051085e-07 0.0065841153
000030 99 cc 8b b9 0e 3e 87 32 0f e0 82 b2 e4 de d6 3a
       -0.00026664583 1.5744288e-08 -1.5235882e-08 0.0016393331
000040 36 cf e6 32 e8 3b e1 3a 3a ed 3e 32 89 20 e9 32
       2.6869753e-08 0.0017183991 1.1113395e-08 2.7139565e-08
000050 55 be 43 3b 60 58 3d bc
       0.0029868085 -0.011556715

weight f4 [22]
000000 c8 59 2f 3f 6e fb 2f 3f a5 a6 30 3f e0 ad 2f 3f
       0.6849637 0.68743026 0.6900428 0.6862469
000010 b8 18 30 3f b8 8c 2f 3f e4 0c 2f 3f 60 ea 2f 3f
       0.6878772 0.68574095 0.68379045 0.68717
000020 31 d0 2e 3f 7b b4 30 3f a6 12 2f 3f 36 be 2e 3f
       0.68286425 0.6902539 0.6838783 0.6825899
000030 02 5e 2f 3f d1 68 2f 3f 16 a5 2f 3f 19 6c 2f 3f
       0.6850282 0.6851931 0.68611276 0.6852432
000040 d1 b4 2e 3f 1b ce 2f 3f b9 07 2f 3f 74 2a 30 3f
       0.68244654 0.68673867 0.6837116 0.6881478
000050 9d 54 30 3f 0b 9c 2f 3f
       0.6887911 0.6859748

bias f4 [22]
000000 ed 85 d0 3b 0f a4 e4 3b 17 99 9f b9 15 b5 92 bb
       0.0063636214 0.006977565 -0.00030440904 -0.004477153
000010 d9 cf 5a bc b1 f3 c6 bb d9 d7 02 3b de 32 28 3b
       -0.013355219 -0.0060715307 0.001996508 0.0025665085
000020 77 db 6b ba b1 b1 21 bb 8a 45 11 3b e3 f1 89 3b
       -0.00089972414 -0.0024672563 0.0022166693 0.0042097433
000030 50 ac 16 bc 61 02 54 bb 63 04 de 3b 4f 04 b9 ba
       -0.009196356 -0.003235005 0.0067754253 -0.0014115664
000040 7b fe 8f 3b c0 14 56 bc bf 23 d9 3a 67 4c f1 bb
       0.00439435 -0.013066471 0.0016566439 -0.007363844
000050 dc 36 76 ba fe 5e 74 3b
       -0.000939233 0.0037288065

running_mean f4 [22]
000000 a7 08 37 3a a0 c8 5a 3c 0f f8 e0 ba f6 e6 19 ba
       0.00069821853 0.013353497 -0.0017163771 -0.00058709027
000010 1a aa 87 3a e6 6b 0a ba c3 0e 42 bc 27 d9 6a 3c
       0.0010350377 -0.00052803603 -0.01184434 0.014334
000020 ee 25 b2 bb 4c 69 a4 bb 6f 2c bd 39 f4 c4 d7 3b
       -0.0054366505 -0.005017435 0.00036081995 0.006584758
000030 1e 2d 8a b9 37 72 bf 38 28 95 9d b6 46 fb fe 3a
       -0.00026355026 9.128864e-05 -4.6963287e-06 0.0019453547
000040 87 ef 87 38 e1 51 cf 3a 42 83 12 39 f0 38 b0 38
       6.481917e-05 0.0015817248 0.00013972542 8.4029394e-05
000050 14 2b 7d 3b 71 91 4f bc
       0.0038630413 -0.012668953

running_var f4 [22]
000000 67 49 db 3e 66 a7 13 3f ef 18 42 3f bc 30 2d 3e
       0.4282944 0.57677305 0.75819296 0.16913122
000010 10 e5 7f 3e 0c 89 96 3e 35 85 6f 3e 36 c6 f0 3d
       0.24989724 0.29401433 0.23390658 0.11756556
000020 1d f1 13 3e 7e 2c 96 3d d2 3d 8e 3d 04 8e 00 3e
       0.14447446 0.07332705 0.06945385 0.12554175
000030 bc 23 ae 3d ce fd ef 3d 40 8d b2 3e e5 cf d0 3e
       0.085029095 0.11718331 0.3487339 0.4078361
000040 72 3e a7 3d 30 5d 36 3e 4c 52 a4 3d 9e a6 45 3e
       0.081662074 0.17808986 0.080235094 0.1930184
000050 23 9a a7 3e d7 6a 5e 3e
       0.32734784 0.21720444

weight f4 [20, 22, 1, 12]
000000 20 a7 86 3a aa 63 04 bb 63 9c 07 bc a9 fd 2f bc
       0.0010273196 -0.0020201006 -0.008277032 -0.01074163
000010 e1 06 cc bb 2a be 14 bc 04 81 48 bc 2d 7d 1f bb
       -0.006226406 -0.009078542 -0.012237791 -0.0024336085
000020 9f bd d8 bb 38 41 fd bb 9a 32 bc 39 b7 b7 49 3a
       -0.0066144015 -0.007728722 0.00035895855 0.0007694917
000030 a6 6f 8c 3b 00 1c a1 bb b3 6a 3a 3a 09 bd 20 bb
       0.0042857705 -0.004916668 0.00071112363 -0.0024526736
000040 55 56 bb bb f7 85 bc 39 cb 2f 64 bc cc e6 ab bb
       -0.0057170787 0.00035957966 -0.01392741 -0.005246019
000050 54 67 cb 3b d7 f2 78 bc 10 3b ca 3b 13 84 f0 bb
       0.006207386 -0.015194616 0.0061715916 -0.007339963
000060 87 4c 95 bc 17 fb 16 bb 7b f4 17 bb cb 5a 56 3b
       -0.018224968 -0.0023037845 -0.0023186493 0.0032707925
000070 ae 43 9d 3c b4 6c c6 3b db b3 86 3c 91 28 e2 3b
       0.019197311 0.006055439 0.016443184 0.0069018085
000080 6d 98 22 ba a7 cf 54 3b 93 da f1 bb ff e5 f9 3b
       -0.0006202523 0.0032472403 -0.0073807924 0.0076262946
000090 c0 09 9d bc 14 67 97 3b 12 0a 0b bc 50 c2 3e 3c
       -0.019169688 0.004620442 -0.008486288 0.011643007
0000a0 ff 7e c8 3b 28 74 9d 3b 0b 1a eb 3b fd 7d 01 bc
       0.0061186547 0.0048051067 0.0071747354 -0.007903573
0000b0 4c 16 ce ba cd 80 ca 3b d4 c3 9e 3b 94 87 8b 3c
       -0.0015723198 0.006179905 0.004845122 0.017032422
0000c0 cd 3b 4d bc 0e 67 1f ba b3 83 88 bc f1 6d dc bb
       -0.012526465 -0.0006080725 -0.016664362 -0.006726973
0000d0 b0 61 49 bb af 05 f5 bb fe 6e 84 bb 9f 9a c5 bb
       -0.0030728392 -0.007477484 -0.0040415516 -0.006030395
0000e0 e6 d7 22 bb fe 48 35 3c 4c 7a b9 3b 44 9a 20 3c
       -0.0024847924 0.011064766 0.005660331 0.009802405
0000f0 d2 d0 bc bb 96 bb 96 3c 5d 8c 22 bc 74 88 50 3c
       -0.005762198 0.018399995 -0.0099211605 0.012727845
000100 a8 67 24 3c b6 07 9f bb 87 f3 b2 3b 94 58 00 3c
       0.010034479 -0.004853214 0.0054611596 0.007833619
000110 66 01 e2 ba 78 c4 7e 3c 5e ee b9 bc 83 67 23 3c
       -0.0017242848 0.0155497715 -0.02269667 0.00997341
000120 10 ee 01 3c 43 c9 21 3c 65 3b 38 3c e6 22 57 3c
       0.007930294 0.009874645 0.0112446295 0.013130879
000130 db 01 11 3c 8d b9 3c 3c 10 35 38 ba 55 84 3f ba
       0.00885054 0.011518848 -0.000702695 -0.0007305791
000140 5b 31 cb bb 13 63 ac bb 53 17 27 bc 0b eb 4e bb
       -0.006200952 -0.005260834 -0.010198432 -0.0031573202
000150 d3 2b 36 bc 36 90 ce ba b9 fb 57 bc 49 77 7b bb
       -0.011118847 -0.0015759531 -0.013182574 -0.003837066
000160 08 1c a4 39 f7 0d cb 3b 92 93 8f bb bf 11 e3 3b
       0.00031301402 0.006196733 -0.0043816054 0.0069296057
000170 3b d8 c8 ba 02 74 d6 ba 6e 88 3e 3c 55 11 98 ba
       -0.0015323231 -0.0016361477 0.011629207 -0.0011601845
000180 4b 82 ec bb c0 af df 3a 4c 06 fd bb 68 37 f5 bb
       -0.0072176806 0.0017065927 -0.007721698 -0.0074834116
000190 c2 46 6c 3c 94 39 b5 3a d3 1c ad 3a 0d 93 23 3c
       0.014421167 0.0013826364 0.0013207443 0.00998379
0001a0 60 90 a4 bb 51 39 42 bb 48 08 22 bb 81 67 9f bb
       -0.0050220937 -0.0029636214 -0.0024724174 -0.0048646335
0001b0 42 91 9a 3b 31 76 0c ba 44 87 26 bc 16 1a 53 ba
       0.004717023 -0.0005358188 -0.010164086 -0.00080528983
0001c0 7b f6 97 3a 40 76 19 bb 8f d6 37 3c 04 ed 9d 3a
       0.0011593843 -0.002341643 0.011220588 0.0012048786
0001d0 69 1c 73 3c db ea f1 3b 20 aa 4b 3c c8 95 d1 3b
       0.0148383165 0.0073827333 0.012430698 0.006396029
0001e0 87 2d 81 bb 20 f5 35 3c 56 fc 62 bb 98 77 31 3b
       -0.003942195 0.011105806 -0.0034635267 0.002707934
0001f0 57 d5 c9 3a 1b df ca 39 80 cd 59 bc a3 9e 6d bb
       0.0015398663 0.0003869467 -0.013293624 -0.0036257885
000200 b0 34 19 bc 23 0c df 3a b3 85 b3 ba 2b 0c 18 3c
       -0.009350941 0.0017017167 -0.0013696462 0.009280245
000210 c2 6c 3d 38 c2 cf 83 ba d8 fe fd ba 7c 97 b5 bb
       4.51624e-05 -0.0010056423 -0.0019378318 -0.00554174
000220 ad b8 c3 ba 25 a2 03 3a f6 dd b0 ba 09 82 99 3b
       -0.0014932357 0.0005021415 -0.0013493884 0.004684691
000230 0a 8d 2d 3c a0 44 05 3b d2 6e f0 3b e4 5b 0d 3c
       0.010592708 0.0020335093 0.0073374296 0.008627865
000240 d4 dc 47 3c 13 47 b4 3b b2 c8 7a bb 32 11 13 bb
       0.012198646 0.005501637 -0.0038266596 -0.002244067
000250 72 9f a5 3b 01 92 19 bc 81 23 ad 3b 07 74 2f 3b
       0.0050544078 -0.009373189 0.0052837734 0.0026772039
000260 85 0c af 3b 7c 74 35 3c a0 3e 7e 3b bc d9 68 3b
       0.0053420686 0.011075135 0.0038794652 0.003553017
000270 0a c7 c6 bb d6 83 43 3b 6f 34 65 bb 49 48 d0 3b
       -0.006066208 0.002983322 -0.003497388 0.0063562733
000280 a9 df 52 3c ec 44 0c 3c 3d c7 d3 3b 5d b9 04 3c
       0.012870708 0.008561354 0.00646296 0.008100835
000290 49 88 44 3c 77 8a 4d 3b c1 e6 dd 3a 2c 7b fd bb
       0.011995384 0.003136305 0.0016929732 -0.0077356305
0002a0 18 47 6c 3c 3b 78 58 bb 9f 17 34 3c 28 b7 45 bc
       0.014421247 -0.0033030647 0.01099196 -0.012067594
0002b0 b9 8a 2b bb f5 7b 0f bc 35 30 ca bb 1c 11 22 3b
       -0.0026175214 -0.008757581 -0.0061702975 0.0024729436
0002c0 e9 66 af bb 43 38 16 bc 31 a3 c6 bb 1a 57 2d bc
       -0.005352844 -0.009168687 -0.0060619344 -0.010579849
0002d0 97 38 85 bc ce d6 05 bc 0d c1 8c b9 39 68 49 bc
       -0.016262336 -0.008168889 -0.00026846715 -0.012292915
0002e0 73 aa 72 3a c9 0a b2 bb 58 85 e5 bb 58 ba 24 bc
       0.00092569663 -0.0054334146 -0.007004421 -0.010054193
0002f0 2b 7a 63 bc f9 7a 87 bc b4 ac 24 bc 0a 34 f0 3a
       -0.013884108 -0.01653813 -0.010050941 0.0018326056
000300 e2 94 50 bb 12 83 9f bb 7d 04 4e bc c4 5a be bb
       -0.0031827022 -0.0048679197 -0.012574312 -0.00580916
000310 86 87 62 3a 0c c2 6b ba e0 16 1d 3a 9a 0b 49 3b
       0.00086414104 -0.0008993454 0.00059924833 0.003067708
000320 7b 2d 26 3c 7f 8f 2b 3b d9 21 02 3c f6 c7 8e 3b
       0.010142679 0.002617806 0.00794264 0.0043573333
000330 26 0d 30 3c c6 82 4c ba fe 8b 3c 3c cd 0b ae 3b
       0.010745322 -0.0007801469 0.011507986 0.0053114654
000340 91 ff f8 3a 22 f1 93 3b ce bc fd 3b 6a 1e 94 ba
       0.0018997063 0.0045148293 0.0077434545 -0.0011300568
000350 8c 22 1a 3c 70 a6 fb 37 76 57 f2 bb 15 13 2f 3c
       0.009407651 2.9999035e-05 -0.00739568 0.010685702
000360 db 5d bb bb cd eb 05 3c 29 6a 07 3c c2 20 19 3c
       -0.0057179756 0.008173895 0.008265057 0.009346189
000370 35 10 44 3b 6a a4 3a 3c 07 2e 01 bc d3 d8 8f bb
       0.0029916887 0.011391738 -0.007884509 -0.004389861
000380 a1 80 1b bb ba 2a 50 bc e4 b1 93 bc c0 fc 54 3b
       -0.0023727792 -0.012705499 -0.01802916 0.0032499284
000390 42 08 5b 3a 8b 47 dc bb 0a 0e 16 bb df 60 e6 bb
       0.00083554175 -0.006722396 -0.0022896552 -0.007030591
0003a0 ca 3e 6c 3a 23 3c 08 bb c1 84 5c bb 7f 0b cb 38
       0.0009012042 -0.0020787797 -0.0033648463 9.6819356e-05
0003b0 5c 56 a0 ba 24 37 d7 ba 10 73 e4 3b 37 c9 ac bb
       -0.0012232768 -0.0016419631 0.0069717243 -0.00527301
0003c0 90 e9 2c bc 28 dd 9e 3b 16 f3 94 bb 95 55 8b bb
       -0.0105537325 0.004848141 -0.0045455797 -0.0042521455
0003d0 c6 b8 c4 bb b9 9d 14 3a 9d 7c 8f bb 81 c3 47 ba
       -0.006003472 0.00056692545 -0.0043788687 -0.000762038
0003e0 6a 16 c3 bb bf cb a5 bb 81 d0 87 39 79 77 7e bb
       -0.0059535997 -0.005059689 0.00025904554 -0.0038828535
0003f0 b3 7a f5 ba 4f b6 9e bc 82 e1 5b bc 88 dd 74 bc
       -0.0018728584 -0.01937404 -0.0134204645 -0.014945395

bias f4 [20]
000000 52 4a ea 31 ba 2b 76 b3 07 45 00 b3 2e 68 e8 30
       6.8187456e-09 -5.7316107e-08 -2.9865102e-08 1.6909831e-09
000010 9e a8 6c b2 1f 06 83 b2 24 93 59 32 49 60 21 32
       -1.3775347e-08 -1.525319e-08 1.2664518e-08 9.393326e-09
000020 0c d8 a3 b2 a7 cd c0 b0 dd 5c 71 31 35 fa f7 32
       -1.9073944e-08 -1.4028289e-09 3.5122902e-09 2.8868365e-08
000030 8c 2d 2c 32 c2 85 27 30 81 f0 70 31 f0 39 ca b3
       1.0022074e-08 6.094433e-10 3.5061307e-09 -9.416897e-08
000040 2a 1a 29 31 39 b6 fc b0 bc ce 87 b3 5c 40 41 31
       2.460761e-09 -1.8387204e-09 -6.324032e-08 2.812178e-09

weight f4 [20]
000000 26 86 2f 3f 0f 73 2f 3f 8c 8e 2f 3f a3 22 2f 3f
       0.6856407 0.6853494 0.68576884 0.68412226
000010 98 0d 2f 3f b2 71 2f 3f 2d 72 2f 3f 4b 16 2f 3f
       0.6838012 0.6853286 0.68533593 0.6839339
000020 6f 4e 2f 3f 50 f6 2e 3f 5c 30 2f 3f 37 22 2f 3f
       0.68479055 0.68344593 0.68433166 0.6841158
000030 40 6a 2f 3f 6a 2a 2f 3f de 70 2f 3f a6 24 2f 3f
       0.685215 0.68424094 0.68531597 0.68415296
000040 90 6f 2f 3f 66 d8 2f 3f d3 44 2f 3f c7 09 2f 3f
       0.68529606 0.6868957 0.6846439 0.68374294

bias f4 [20]
000000 29 ba 0d b3 f0 8f 78 b2 f0 ba c4 32 b6 45 3d b3
       -3.2998432e-08 -1.44682275e-08 2.2902412e-08 -4.4068393e-08
000010 f3 6f f0 b2 43 c3 bc 32 4a f1 8c 32 aa 04 a0 b2
       -2.7990586e-08 2.1974875e-08 1.640787e-08 -1.8628572e-08
000020 a9 ab 0f b3 3c 64 ac b2 54 90 e5 32 b4 80 34 b3
       -3.3450906e-08 -2.0069017e-08 2.6724742e-08 -4.202657e-08
000030 2c 7e 0f b3 d2 61 86 32 50 cc 61 b1 88 b8 a5 31
       -3.3409535e-08 1.5644137e-08 -3.2857947e-09 4.823111e-09
000040 2c 38 18 b2 20 2e 98 b3 91 de d9 32 6a 3a 8a b2
       -8.8603365e-09 -7.086442e-08 2.5363336e-08 -1.6091878e-08

running_mean f4 [20]
000000 d9 55 c9 ba 4c 4c 02 3b 38 b0 d9 ba 79 d1 97 3a
       -0.0015360668 0.0019881902 -0.0016608303 0.0011582813
000010 bf da 13 bb 4b e6 f1 3a 1d 29 a7 b9 df 28 b5 ba
       -0.0022560803 0.0018455473 -0.00031883354 -0.0013821385
000020 78 66 30 bb 8f c7 e7 b9 d2 4f 95 b9 e9 6a b3 3a
       -0.0026916545 -0.00044208436 -0.00028478965 0.0013688478
000030 de eb f1 ba 25 0e df 3a 7b 14 81 ba 42 25 c9 ba
       -0.0018457135 0.0017017765 -0.0009848023 -0.0015346187
000040 24 09 95 3a b4 43 0c ba 52 0a 75 b9 71 4f 5d 3a
       0.0011370522 -0.0005350665 -0.00023368865 0.00084423186

running_var f4 [20]
000000 5c e5 a1 3b c1 06 af 3b ad b7 66 3b f3 09 9d 3b
       0.004940672 0.0053413813 0.0035204694 0.004792446
000010 b1 26 ec 3b 6c e7 9c 3b f9 81 fd 3b 47 16 e5 3b
       0.007206761 0.00478833 0.007736441 0.006991181
000020 3f 37 d4 3b fe 03 ac 3b 4d ab a1 3b e9 7e 9a 3b
       0.0064763124 0.0052494993 0.0049337507 0.004714836
000030 1f 6e e5 3b f6 38 47 3b d3 fc 26 3b 5a 27 ee 3b
       0.007001653 0.0030398942 0.0025480285 0.0072678747
000040 ae c2 dd 3b 2e 94 11 3c c3 71 8a 3b e2 94 e6 3b
       0.0067675924 0.008885426 0.0042249872 0.007036791

weight f4 [20, 18]
000000 f0 e6 ee 3d 58 7c d9 be 4d 7e d7 be aa 77 54 3e
       0.116651416 -0.4247768 -0.42088547 0.20748773
000010 9b ca 04 be 3a 89 5e 3e 91 95 22 be d5 43 09 be
       -0.12967913 0.21732035 -0.15877368 -0.13404782
000020 90 30 92 be 35 61 c4 bd fe 88 95 3d 26 3a cf be
       -0.28552675 -0.09588853 0.0730152 -0.4047405
000030 7c 23 f7 bd 17 32 b4 bc a0 db 87 bd 71 63 63 3e
       -0.12067315 -0.021996541 -0.06633687 0.22205903
000040 f7 e1 93 3e b2 04 2b be 1f 91 a7 3c 17 61 0f bf
       0.28883335 -0.1670101 0.020454941 -0.5600752
000050 0d cb 9b bd b3 84 3b be e3 8b a2 3d 62 52 c0 be
       -0.07607088 -0.1831234 0.079368375 -0.37562853
000060 0e f5 9b bd d5 dd 63 be 57 9b 36 3e 10 d4 7c 3e
       -0.076151 -0.22252591 0.17832695 0.2469027
000070 5c 8b 1e bc d7 cb 37 bd 9c 05 cd 3e b8 98 52 bd
       -0.009676781 -0.04487213 0.40043342 -0.051415175
000080 8c 32 a9 3d 0f 98 68 3e 05 28 8b be 9e 87 54 3e
       0.08261594 0.22714256 -0.2717897 0.20754859
000090 81 20 47 be db c9 95 bd ca 33 31 3e 9f 30 e5 3e
       -0.19445993 -0.073138915 0.17304912 0.44763657
0000a0 d0 e9 ab bd f4 0c 8a 3e b2 29 53 bc e2 f0 db 3e
       -0.083942056 0.26963007 -0.012888359 0.42957217
0000b0 f1 f6 4d bd f6 29 c7 3d b5 9f 4f 3d ba 5b 50 be
       -0.05028433 0.097248 0.050689418 -0.20347491
0000c0 94 1c 36 3c 57 c4 50 be 53 55 74 3e 34 77 6e 3e
       0.011115212 -0.20387398 0.23860674 0.2328766
0000d0 c0 5c aa be b7 7e a2 3e c2 20 af 3d 44 92 48 3c
       -0.33273888 0.317373 0.0855117 0.012241904
0000e0 f4 5f a4 3e b4 79 dc bc 5b 7b 81 be 93 dc 5a 3e
       0.32104456 -0.026913501 -0.25289425 0.21373205
0000f0 a0 2a 00 3e 27 89 b8 bd 66 75 9c 3e a6 31 53 3e
       0.1251626 -0.09010535 0.30558318 0.20624408
000100 b3 bc 13 3e 67 4f 60 be d2 cc b1 3d 3b e1 d3 3e
       0.14427452 -0.2190529 0.086816445 0.41382775
000110 9b 38 a7 3e 0f 18 56 3e 68 20 46 3d 00 98 e0 be
       0.32660374 0.20907615 0.04837075 -0.43865967
000120 56 7a dc 3d 5c 72 96 3d e6 0e 1f be e9 9b d0 3d
       0.10765521 0.07346031 -0.15533027 0.101859875
000130 ee b8 87 bd 74 eb 6f be 48 21 c7 3d 89 24 0f 3d
       -0.066270694 -0.23429662 0.09723145 0.034946952
000140 57 03 b4 3d 8a 63 ca be fd ec 4f 3e c3 9e 8b 3e
       0.087896995 -0.39529067 0.20305248 0.27269563
000150 ff 07 c6 3d 78 17 ef be 4f b1 9e 3e 64 34 86 3e
       0.09669494 -0.46697593 0.3099465 0.26211846
000160 e5 f7 a4 bd d4 7a df be fa b8 07 bd 10 47 b3 bc
       -0.08055095 -0.43648398 -0.03313539 -0.021884471
000170 3d d1 e8 bd 62 74 5c bd 54 38 a6 be 24 25 c4 bd
       -0.11368034 -0.05382193 -0.3246485 -0.095773965
000180 c2 1e 5c bc e4 39 c0 3e aa fe f2 3e ed 78 fd bd
       -0.013435068 0.37544167 0.47459918 -0.123765804
000190 4f 8e 67 3d 99 93 10 be ed 8a 9e 3e 11 4c 92 3c
       0.0565322 -0.14118804 0.30965367 0.017858537
0001a0 4f 1a be be d2 43 41 bd 39 4a a4 3e 22 2c 81 3d
       -0.37129447 -0.04718382 0.32087877 0.06307246
0001b0 b9 93 63 3d 4c f9 aa 3b 6b b5 6f 3e 4d 59 f6 bd
       0.0555608 0.005217707 0.23409049 -0.120287515
0001c0 24 1e 06 bf 32 6c 55 3d a9 42 7a be 48 aa 3d bd
       -0.5238974 0.052105136 -0.24439491 -0.04630497
0001d0 ec 6d 35 bd 27 20 a4 3d ac 8d e9 be 60 d5 ca 3c
       -0.044294283 0.08013945 -0.456159 0.024759948
0001e0 d7 b8 93 bd 55 1f 99 be f4 40 9f be 98 f6 ab 3d
       -0.0721299 -0.29906717 -0.31104243 0.083966434
0001f0 bd 16 9b be bc 86 67 be 47 d8 36 be 3e 76 97 3d
       -0.30290785 -0.22609991 -0.17855941 0.073956
000200 d6 6f 46 3e e6 3d a4 3e 3e da 07 3e 34 33 ff be
       0.193786 0.32078475 0.13266847 -0.49843752
000210 a2 96 11 be 33 33 15 3e 43 ca cb bd 27 b2 d4 3e
       -0.14217618 0.14570312 -0.09950688 0.4154217
000220 32 36 e8 bd 75 1f d5 3d a2 d3 bc bd f7 68 25 3d
       -0.11338462 0.104063906 -0.09220053 0.040383305
000230 c5 ae cb bc 63 7c 87 3e 8a a2 bb 3e 8b e6 34 be
       -0.02486361 0.26462087 0.36647445 -0.1766607
000240 f4 90 b2 bc ae 0f 70 3e 81 01 dc be 95 9a bb be
       -0.021797635 0.23443481 -0.42969897 -0.36641374
000250 8a a5 78 3b 80 c7 6c 39 b1 a8 f3 be 1c 34 98 3e
       0.0037940466 0.00022581033 -0.4758964 0.29727256
000260 17 13 04 3e 02 72 42 3d 1a f0 08 be 6f 83 07 3d
       0.12897907 0.047472008 -0.13372841 0.03308433
000270 77 b2 6e be cb 77 4b 3e 4d ce 91 3e 95 2f 92 3e
       -0.23310266 0.19869916 0.28477708 0.28551927
000280 ef 69 8d bd 49 f8 97 3d 17 3e ab be 75 2e 63 be
       -0.06904971 0.074204035 -0.33445808 -0.2218569
000290 ca 28 bc bd c2 1d 96 bd 91 6d fb be e6 3f 7d 3d
       -0.091874674 -0.073298946 -0.4910703 0.061828516
0002a0 da ce c5 3d 23 af 27 be ae 47 d2 bd bf 41 3e 3e
       0.096585944 -0.16375403 -0.10267578 0.18579768
0002b0 c8 e4 72 3e 06 32 fe 3e e9 3c 89 be 62 6a ce 3c
       0.23720086 0.4964754 -0.26804283 0.025197212
0002c0 10 5f 6b 3d 14 2c a9 3c b8 a4 30 3e 72 6f 1f 3e
       0.057463706 0.0206509 0.17250335 0.15569857
0002d0 b6 fa 29 bb 37 56 93 bd 36 00 15 3e 45 9e c3 3e
       -0.002593679 -0.071941786 0.14550862 0.38206688
0002e0 6f ca 13 3c 02 e2 20 3d 49 34 92 be bc 01 ec bd
       0.009020432 0.039278038 -0.28555515 -0.11523768
0002f0 a9 54 9d 3e a4 91 d1 be 5d 74 f0 3d 49 30 9c 3e
       0.30728653 -0.40931427 0.117409445 0.3050559
000300 b0 9a 6f bd 5a 85 8e 3e 9d 3b 56 be 81 06 5c 3e
       -0.05849713 0.27836114 -0.20921178 0.21486856
000310 9f 77 55 bd b1 ac 4b 3e 10 fb c6 bd ab 7e b1 3d
       -0.052116033 0.19890095 -0.09715855 0.08666738
000320 b5 3b 72 bd 6c b7 72 bd 17 dd dc 3b cc 00 c8 3e
       -0.059138972 -0.059256956 0.006740223 0.39063108
000330 a3 82 5d be 31 27 6d bc 87 85 0e bd 06 33 56 3e
       -0.21631865 -0.014474676 -0.03479531 0.20917901
000340 1a fb 23 3e d8 3f 93 3e 2d 3a 00 3f 19 dc ba bd
       0.16013756 0.28759646 0.5008877 -0.091240115
000350 01 c5 28 3e 75 a6 09 be ad 2c 75 3d 37 5a 6a bc
       0.16481401 -0.13442405 0.05985706 -0.014303735
000360 35 7e 30 3e a7 74 ed 3e d0 ed c3 bd 5e f9 84 3e
       0.17235644 0.4637806 -0.095668435 0.25971502
000370 6c 08 15 be ee b9 ac bd a0 fa b9 be 08 f1 e2 be
       -0.14553994 -0.08433901 -0.36324024 -0.44324517
000380 42 51 06 be 0c d3 0c 3e 04 d4 33 3e dc 3c f3 bd
       -0.13116935 0.13752383 0.17561346 -0.118768424
000390 e6 ec 74 3e a7 9f 26 3b 54 36 a2 bd 44 7b c7 3c
       0.23918495 0.002542475 -0.079205185 0.02435077
0003a0 08 fd 2b bd d4 4c e4 3d e6 0b a0 3d 22 84 4c 3d
       -0.041989356 0.11147466 0.078147694 0.0499307
0003b0 3c 31 df 3e a0 df 93 be 8d 9b cf bd 9d 51 69 bd
       0.4359225 -0.2888155 -0.10137091 -0.056962598
0003c0 93 d2 02 be 83 e5 31 be 41 9f 53 bc e1 82 81 be
       -0.1277564 -0.17372708 -0.012916387 -0.25295165
0003d0 00 e6 e9 38 86 b1 50 be 79 10 8d bd ea ba 8a be
       0.000111531466 -0.2038022 -0.068879075 -0.2709573
0003e0 d6 93 a4 3e 04 33 01 3e 6a d3 d8 3e 26 c4 cc 3e
       0.3214404 0.12617117 0.42348796 0.399934
0003f0 3e 50 a4 3e 82 56 3f 3d e8 66 45 be ea e4 73 3e
       0.3209247 0.04671336 -0.19277537 0.23817793

weight f4 [20, 18]
000000 f0 54 5c 3e ce 36 48 be 1e d7 c9 bd a1 b5 85 3d
       0.21516776 -0.19552156 -0.098554835 0.065287836
000010 30 29 05 3f 2a a3 bd be 57 9f 41 3d 67 63 17 bd
       0.5201597 -0.37038547 0.0472711 -0.03696003
000020 f1 72 27 3d 15 53 27 3d bd 5f 8d 3e b6 29 0b be
       0.0408811 0.040850718 0.27612105 -0.1359013
000030 d4 6a 99 3c 0a 94 94 3e 55 54 86 be ac 53 70 bd
       0.018727697 0.29019195 -0.26236215 -0.058673546
000040 4d ba 6e be a6 2b 92 be 72 58 e9 be 28 63 8d bc
       -0.23313256 -0.28548926 -0.4557529 -0.017259195
000050 c3 4f 83 3e 4f d1 11 3e 20 eb 8e 3b 4f 39 32 be
       0.2564679 0.14240001 0.004361525 -0.17404674
000060 ed 03 39 3e a9 37 10 be d7 43 86 bd 24 2c a3 be
       0.18067904 -0.14083733 -0.06555908 -0.31869614
000070 c8 ee 93 be ae 62 70 3d 8c ba 90 3e 30 43 a3 bc
       -0.28893113 0.05868786 0.28267324 -0.019929498
000080 61 64 5e 3e 21 09 79 3e 20 7d 82 3b dd f8 c5 be
       0.21717979 0.24319889 0.003982201 -0.3866643
000090 3f ca 48 bc 09 e2 32 3e cb 08 28 3e db 7e cc 3e
       -0.0122552505 0.17469038 0.16409604 0.39940533
0000a0 ef 3b ca bd 2e c0 a2 3e 8b 94 19 be 93 6d c7 bd
       -0.09874713 0.31787246 -0.14998071 -0.097376965
0000b0 8b 05 ae 3e da af 44 bd ec af 15 3e ab 51 a5 bc
       0.33988604 -0.048019268 0.1461789 -0.020180544
0000c0 72 ea ae 3d b1 08 21 3f 83 fd f9 3c 7c a6 09 3c
       0.08540811 0.6290389 0.030516392 0.008401509
0000d0 9f d2 02 3d c8 3a 40 be 93 fb 97 be f4 57 1f be
       0.031939145 -0.18772423 -0.29684123 -0.15560895
0000e0 42 af a4 be 96 85 85 3d 6c 3a bd bd ab 2f a4 3e
       -0.3216496 0.0651962 -0.09239659 0.32067618
0000f0 bb db 2b 3d e5 75 d0 bd da aa 57 bc 70 24 89 3e
       0.0419576 -0.101787366 -0.013163293 0.26785612
000100 20 84 82 3b 76 6b 51 be 74 b4 0e be f4 53 96 3d
       0.0039830357 -0.2045115 -0.13936025 0.073402315
000110 a5 f6 4a 3e cf e6 a8 be 82 02 e2 3d c2 9e 89 bd
       0.1982065 -0.32988593 0.110356346 -0.06719734
000120 3d c9 b6 be 03 98 e8 3c 5d f4 6d 3d 94 18 53 3e
       -0.35700408 0.028392797 0.05809437 0.20614845
000130 b8 0e 3e 3e 03 ba 35 3e cc b3 d2 3b 36 78 99 3e
       0.18560302 0.17746739 0.006430125 0.29974526
000140 41 9e 93 bc 8d 43 b1 be bc 9e b2 3e 8c ad 54 bc
       -0.018019797 -0.3462185 0.3488673 -0.01298083
000150 9e 86 ef bd b5 db af be 78 71 65 be 21 f6 80 bd
       -0.11695598 -0.3434731 -0.22406566 -0.06296945
000160 42 a3 84 be 33 2f 92 bd f0 94 17 3d 7d cd 68 3e
       -0.25905806 -0.07137909 0.037007272 0.22734638
000170 c6 3e e8 bd d1 19 73 3e 72 7f b7 3e 27 df 1b 3e
       -0.11340098 0.23740317 0.3583942 0.15221845
000180 1a 58 40 3d b4 61 a4 bd e1 ae 56 3e 28 f4 33 be
       0.04695902 -0.08026448 0.20965149 -0.17573607
000190 1a e8 4a 3e 56 f1 ff 3d 43 be c0 be 81 e2 2b be
       0.19815102 0.12497203 -0.37645158 -0.16785623
0001a0 1a dd 86 3e d5 e8 5a 3e 22 4e 85 3e 63 5c 59 3e
       0.26340562 0.21377881 0.26036173 0.21226649
0001b0 eb a2 82 be f2 52 33 3e b3 95 5c be e2 9a 61 be
       -0.25514922 0.1751211 -0.2154148 -0.2203174
0001c0 56 df 05 3d 51 97 80 be 4c f3 e1 bc ed de b4 3e
       0.032683693 -0.25115445 -0.027581833 0.3532633
0001d0 c8 57 e6 3e c1 ca 32 3e c3 7e 0a 3d 6e b2 ef 3c
       0.44988847 0.17460157 0.033812296 0.029259887
0001e0 5b fa 99 3d 27 ca b7 bd 88 b3 c4 bd 9d 58 c5 bd
       0.07518455 -0.089741044 -0.09604555 -0.09636042
0001f0 b3 e6 ed 3e 90 47 ad be c1 6e 77 bd 56 66 02 3e
       0.46465072 -0.3384366 -0.060408358 0.1273435
000200 57 a2 d3 3e 44 84 f0 bd c9 5e 86 3e 03 16 82 3d
       0.41334793 -0.11743978 0.2624419 0.06351855
000210 8d 36 d4 be 12 77 12 3e dd 5c ad be 8b e2 04 bd
       -0.4144787 0.14303234 -0.33859912 -0.03244261
000220 a0 bc 15 3c 81 64 d5 be 2f 82 dc bb ca 52 5d 3c
       0.00913921 -0.4167824 -0.0067293863 0.013508508
000230 66 50 2a 3e 04 3b b1 be 2f 0c 4f 3e 99 10 3d bd
       0.16632232 -0.34615338 0.20219491 -0.046158407
000240 df 71 ca bd d4 f8 60 3e 88 22 1e 3d 4a f7 eb bd
       -0.098850004 0.2196992 0.03860715 -0.11521776
000250 7b 14 3c 3d f0 85 7a be 06 aa a9 bd 54 e9 cd be
       0.04591797 -0.24465156 -0.082843825 -0.40217078
000260 d3 1d b6 3e 18 32 bd be c4 66 4d be bd 1f 01 be
       0.3556963 -0.3695228 -0.20058733 -0.12609763
000270 fb 8a 21 3d 5e 29 b2 3c 1d c2 71 be 93 89 ac be
       0.039439183 0.021748241 -0.23609205 -0.3369871
000280 4d 8e 01 3d 8e 57 cb 3e 0d 45 ec 3e 6e 0a 3b 3d
       0.03162985 0.39715236 0.46146432 0.045664243
000290 bf 26 fe bd f3 f8 a2 3e 90 cf c7 be ef 2f 44 be
       -0.12409734 0.31830558 -0.39025545 -0.1915891
0002a0 ea c1 b2 bc 09 03 1a 3d 50 b3 01 be ba 4d b5 be
       -0.021820981 0.03760055 -0.12666059 -0.35410863
0002b0 98 ef df 3c f4 bd 92 be 7e 6c f1 bd 2f 79 2c be
       0.027335927 -0.28660548 -0.11788271 -0.16843103
0002c0 d7 77 24 bd 68 9d 2a bc 86 45 a3 3e 15 4e 8c be
       -0.04015335 -0.010413505 0.3188898 -0.27403322
0002d0 1f 97 fe bc ee d4 f0 3d 3a f3 92 be 2f 93 1e 3e
       -0.03107792 0.11759363 -0.28701192 0.15485834
0002e0 f0 a4 cc 3e 0a 59 3e 3e 8d c8 21 be b6 04 88 be
       0.39969587 0.18588653 -0.1579916 -0.26566094
0002f0 12 64 9d be c5 91 f5 3d e5 03 a1 be 76 2c b5 bc
       -0.3074041 0.11990694 -0.31448284 -0.022115927
000300 69 ca 16 3e 83 89 43 bd c7 9e ac be 2c a3 8c 3e
       0.14725651 -0.047738563 -0.33714887 0.2746824
000310 a4 6e 99 3e 70 57 84 bd 92 2e 71 bd d9 38 56 3e
       0.29967225 -0.0646199 -0.058882304 0.20920123
000320 98 de 79 be e9 e5 66 3d 36 ba 19 3d 46 b0 c1 3c
       -0.24401319 0.056371603 0.0375311 0.023643624
000330 f2 49 92 3e b1 1a b5 3e b1 5e 4b be 2a c8 51 be
       0.2857204 0.35371926 -0.1986034 -0.20486513
000340 40 a0 ef be bd 9f 5f 3d 37 53 b4 be 0c d7 aa 3e
       -0.4680195 0.054595698 -0.35219738 0.33367193
000350 67 df ea bd 6f e4 79 be 80 77 21 be 8e 6e d4 bc
       -0.11468392 -0.24403547 -0.15768242 -0.025931623
000360 f0 36 01 bd 7f ce 95 be 5d c3 f0 3c b3 95 b8 3e
       -0.031546533 -0.29259107 0.029390031 0.3605171
000370 dc 1e 8c bd 96 56 59 3e 4f 1d 13 3e c1 0d b3 3c
       -0.068418235 0.21224436 0.14366649 0.021857144
000380 02 42 80 3e 08 53 05 3e 65 dc 31 be 63 5d ab be
       0.2505036 0.13019955 -0.1736923 -0.33469686
000390 7f 77 51 3e 29 4c 94 be 2a 5b a7 be 0c b9 0e be
       0.2045574 -0.28964356 -0.3268674 -0.13937777
0003a0 df 2b 8f bd 7c 0d 9d 3d 5d ba e0 3d 01 50 ce 3e
       -0.069907896 0.076685876 0.10973046 0.40295413
0003b0 16 d6 b3 be dd 43 8f be 2a de 96 3c e5 e5 5c 3e
       -0.35124272 -0.27981463 0.018416483 0.21572073
0003c0 dc ff 3f 3e b3 6f 80 be 06 9f bf ba e4 2b f3 bd
       0.18749946 -0.2508522 -0.0014619536 -0.11873606
0003d0 ef 15 20 3e 95 81 88 be 31 c3 8e 3e 92 f3 17 be
       0.15633367 -0.26661363 0.27883294 -0.14839008
0003e0 6c cf 62 3e 1f fd a3 bd e5 b8 a1 be 3a bd 83 be
       0.22149438 -0.080072634 -0.31586376 -0.25730306
0003f0 23 31 bb bd ab 27 b2 be f7 bc e1 be 3e f5 3e 3e
       -0.091402315 -0.3479589 -0.4408948 0.1864824

weight f4 [20, 18]
000000 d0 d4 a2 bd 6f ec e1 3e 69 0f ea bb 4e 4c 16 be
       -0.07950747 0.44125697 -0.0071429503 -0.14677545
000010 01 70 e3 bd 21 bd 07 be b4 66 7e bd de a0 2a be
       -0.111053474 -0.1325574 -0.062109664 -0.16662928
000020 84 a3 d8 3d 67 85 1c 3d 70 60 81 be 00 51 84 3e
       0.10578063 0.03821316 -0.25268888 0.25843048
000030 4e c5 ad 3e 49 49 0c 3f 4a c4 8a be 08 39 2e 3e
       0.33939594 0.54799324 -0.27102882 0.17013943
000040 4c b5 4e 3d bc d6 86 bb c4 70 32 3e ea 39 05 3d
       0.050465867 -0.004114954 0.17425829 0.032525934
000050 83 a5 a7 3c 7a ab a4 3e 07 e2 91 bd 68 2a 26 bd
       0.020464664 0.32162076 -0.071231894 -0.040567786
000060 f8 36 d5 3d fc 29 cb bd 1d 4e b4 be 2d 06 13 3e
       0.10410875 -0.09920117 -0.35215846 0.14357825
000070 35 8f 4d 3e 56 6d b8 be 65 72 1f 3f 12 93 ca bd
       0.2007416 -0.36020917 0.6228393 -0.09891333
000080 fd 26 4f be c8 fb 60 bd a3 71 06 bc 26 46 4c be
       -0.20229717 -0.054927617 -0.008205804 -0.19948635
000090 67 fd bf 3c 7c 16 45 3d f4 6c 83 be ab dc 8c bd
       0.023436261 0.048117146 -0.25669062 -0.068780266
0000a0 b5 be 86 bd 0c 58 01 3f 21 37 15 be 6a fd 8c 3d
       -0.06579343 0.50524974 -0.14571811 0.068842724
0000b0 7b 79 d0 be 0b 67 ad 3e f6 cd 90 be 95 fb 89 be
       -0.40717682 0.33867678 -0.28282136 -0.26949754
0000c0 45 f4 36 be 16 65 31 3e 3e 08 91 3d 42 cd 28 3e
       -0.17866619 0.17323717 0.0708165 0.1648455
0000d0 ed 96 89 be 7b 30 43 bd cd 74 65 3e 94 03 25 3d
       -0.2687296 -0.047653656 0.22407837 0.040286615
0000e0 22 43 9d be e8 c8 cd 3e 40 28 f8 3d 31 14 94 3d
       -0.3071528 0.40192342 0.12117052 0.07230414
0000f0 0b 03 c9 3e 0f af 2e be 48 02 27 3e af 52 4e be
       0.39260134 -0.17058967 0.16309464 -0.20148729
000100 6c 54 d1 bc 66 9b 5e 3e c0 84 40 bd a4 2b be bd
       -0.02555295 0.21738967 -0.0470016 -0.092856675
000110 48 56 d8 bd d9 9e af 3d 92 66 04 bf 4c 3e 0f 3e
       -0.10563332 0.0857522 -0.5171901 0.13988608
000120 cc 30 d6 be 72 7e 5f 3e 71 4f 8a 3e 89 21 f4 3d
       -0.41834104 0.21825579 0.27013734 0.11920459
000130 c9 30 b5 3e f8 e7 3f be 37 af 6b be 50 e6 b8 be
       0.35388783 -0.18740833 -0.23016058 -0.36113214
000140 d5 6f 84 3c 81 28 85 3e b0 e7 86 3d 5c a9 23 be
       0.016166607 0.26007465 0.0658716 -0.15982574
000150 ae e4 29 be b8 de 92 bd 81 c3 bc bd 04 a0 b9 3c
       -0.1659114 -0.071713865 -0.09216977 0.02265931
000160 3e c8 cb be cd 8b e6 3d 36 85 1e 3e 47 c5 61 be
       -0.3980121 0.11257134 0.15480503 -0.22047912
000170 ed 18 ac 3e 69 b0 99 3e b6 4e 16 be 97 a7 f7 bc
       0.33612767 0.30017403 -0.14678463 -0.03023128
000180 e8 ac f3 bd 9d 61 82 3d ef a2 7d be 57 66 90 be
       -0.118982136 0.063662745 -0.24769185 -0.2820308
000190 27 66 ab be 30 ac e8 bc a2 ef 8f be bf da 35 3e
       -0.33476374 -0.028402418 -0.28112513 0.17759226
0001a0 60 e4 fe be ad b0 80 bc 20 57 05 3d a5 c7 3f 3e
       -0.4978361 -0.015709246 0.032553792 0.18728502
0001b0 0d 91 82 be e0 1f 70 3e 18 fe ed 3d 2e e2 6e be
       -0.2550129 0.2344966 0.1162073 -0.23328468
0001c0 39 2a 3f be 9a 61 90 3e 3c f7 fe 3e 9a 51 19 be
       -0.1866845 0.28199464 0.49798 -0.14972535
0001d0 01 cc 82 3d f8 90 91 ba 5a 61 4f bd 03 d1 4d be
       0.06386567 -0.0011105826 -0.05062995 -0.20099263
0001e0 04 3d 69 be 3f 53 62 be 34 6e a2 be 10 da 8a be
       -0.22777182 -0.22102068 -0.31724703 -0.27119493
0001f0 4b b1 28 3e 8d 75 76 bd 49 b0 66 be 8e 74 6c be
       0.16473882 -0.0601707 -0.22528185 -0.23091337
000200 81 52 9c be 0c dc 61 be 5d 99 8e 3e 02 00 12 3e
       -0.30531695 -0.22056597 0.27851382 0.14257815
000210 86 28 dc 3d c9 41 01 be 20 b4 58 bd 6d e9 29 be
       0.10749917 -0.12622751 -0.052906156 -0.16592951
000220 28 96 38 be 2c 97 0f bc 4d 4f 46 3e c6 ad 1d be
       -0.1802603 -0.0087640695 0.19366188 -0.1539832
000230 1c 90 1a be 3c 42 01 3f d1 bb 38 3e 70 0e 3c 3e
       -0.15094036 0.5049169 0.18040396 0.18364882
000240 e8 7d d2 bc 4d 4f ae bd 0d 8b 71 bd d8 70 48 bd
       -0.025694802 -0.08511219 -0.0589705 -0.04893574
000250 b4 85 1d be 43 53 a3 3e f1 cd df be 68 7c 6e 3e
       -0.15383035 0.3189946 -0.43711808 0.23289645
000260 22 ae 9f 3e b0 41 24 3e e7 5c 58 3e 36 92 87 3e
       0.3118754 0.16040683 0.2112919 0.26478738
000270 f1 0b e3 3d 0d 91 8f be 11 b9 f9 be 6c 30 5e bb
       0.11086262 -0.28040352 -0.48774007 -0.0033903373
000280 e5 96 32 be 7c 75 e3 bd b4 87 7c bc 01 2a 4b bd
       -0.17440374 -0.11106393 -0.0154132135 -0.049600605
000290 d0 89 42 3c 55 b4 bb 3d 85 67 80 be cc af 8b 3d
       0.011873677 0.09165255 -0.2507898 0.0682064
0002a0 ac 1a cf 3e 93 a6 27 3e dc 36 7a 3e 30 e7 c1 3e
       0.40450037 0.16372137 0.2443499 0.37871695
0002b0 e2 33 6a 3e 50 2a 74 bc 81 99 8a bd fa 5a c2 3e
       0.22871354 -0.014902666 -0.0676756 0.37960035
0002c0 74 22 00 bd 9d 73 08 3e db 6a a8 bd cf 85 e0 3d
       -0.031282857 0.13325353 -0.08223506 0.10963022
0002d0 3b b8 ef 3d d4 93 ab be 85 a9 9d 3e c2 da 89 be
       0.11705061 -0.3351122 0.30793396 -0.2692471
0002e0 99 bd dc bd c6 c0 a8 bd 58 97 f5 3d 18 ac a7 be
       -0.107783504 -0.082398936 0.11991757 -0.32748485
0002f0 7a 5f bc bd ab 23 67 3d 69 3a 99 3e ba 76 0c bc
       -0.09197898 0.0564305 0.29927376 -0.0085732285
000300 88 80 59 bd d4 6e df bc c2 62 35 be 41 82 de 3e
       -0.053101093 -0.027274527 -0.17713454 0.4345875
000310 a2 5b 51 bd 8b fd c8 bd eb 35 2b be fe 53 b5 be
       -0.05111278 -0.098139845 -0.16719787 -0.35415643
000320 21 51 45 3c c1 7d 25 be 49 5c 12 be 61 e6 c0 3c
       0.012043268 -0.16161253 -0.14293016 0.023547353
000330 46 27 d7 bb 8b de 1d be e9 06 a4 3e 70 81 67 be
       -0.006565961 -0.15416925 0.32036522 -0.2260797
000340 3a 8f b7 be 29 4c 8c be ca b1 97 3e 43 81 c9 3d
       -0.3585146 -0.27401856 0.2962783 0.09839108
000350 db 3b 59 3d cd ea 90 be 77 5f b2 be d1 bb 59 be
       0.0530356 -0.2830414 -0.3483846 -0.21263053
000360 51 c5 ae be 60 31 9f bc f6 a9 4d be 90 71 e7 3e
       -0.34134915 -0.019432724 -0.20084366 0.4520383
000370 de 22 0c bd 0a ed 56 3e 2a a4 38 be d6 61 0c be
       -0.03421294 0.2098886 -0.18031374 -0.13709196
000380 9d 2a 4e 3e 7e 0b 90 be 24 8c 97 3e ef 6e 88 be
       0.20133443 -0.28133768 0.29599106 -0.26647136
000390 f6 d6 03 be 09 d3 85 3e 28 f4 27 bc 5c bd 0a 3e
       -0.1287497 0.2613757 -0.0102510825 0.13548797
0003a0 84 f2 9e 3e 52 9a 26 be b6 76 6b 3e 38 04 fe 3d
       0.310444 -0.16269806 0.22994503 0.124031484
0003b0 ac c1 a2 bd 18 96 22 3d f4 98 1c 3e 38 40 6a be
       -0.07947096 0.03969392 0.15292722 -0.2287606
0003c0 07 a6 b1 bc 85 eb 6d 3e e7 32 c9 3e 97 db 55 3e
       -0.021685613 0.23234375 0.39296648 0.20884548
0003d0 0e e9 64 be c6 e4 fe be f0 d2 80 3c 2c bb 3c be
       -0.22354528 -0.49783915 0.015725583 -0.18430775
0003e0 88 ea 50 be a0 d0 0a 3e 99 2c 3c 3e 44 a9 88 3e
       -0.20401967 0.13556147 0.18376388 0.2669164
0003f0 39 f1 cd 3e 0b 9a 3b 3e 3c 9c df bd 8d df 6e be
       0.402231 0.18320481 -0.10918471 -0.23327465

weight f4 [4, 513]
000000 07 c8 20 bd b7 2a 3b bd 90 57 1b 3d eb c6 43 3d
       -0.03925326 -0.045695033 0.037925303 0.047797125
000010 ba 0b 63 bd ab c4 cc bd 3c 25 9d bc 41 bc 7e 3d
       -0.055431105 -0.09998449 -0.019182794 0.06219125
000020 fa fe bf bc fb 65 4f 3d 55 75 50 bd b4 e3 a9 3c
       -0.023437012 0.050634366 -0.050893147 0.02073846
000030 1a 94 1f bd a6 8c 4f bd f8 94 cb bc 50 70 b4 3c
       -0.0389596 -0.050671242 -0.024851307 0.022026211
000040 d9 96 86 3d af 32 a2 3d c3 13 fc 3c 33 85 b9 3c
       0.06571741 0.079198234 0.030771142 0.022646522
000050 49 7a 6e bd 9a 98 80 3d 9c 80 1a 3c 6a 03 e5 bc
       -0.05822209 0.062791064 0.009430077 -0.02795573
000060 ed 96 b0 bc 2d 24 4b bd ff ce f7 3b 5a 70 4e 3d
       -0.021556342 -0.049595047 0.0075625177 0.050400116
000070 f2 57 eb bc 92 71 5f bc 5b ee f1 bc 40 77 3d bd
       -0.028728459 -0.013637917 -0.029532602 -0.046256304
000080 be cf 03 bc 86 c1 3c bd fe 8a 35 bd 67 16 de 3c
       -0.008045135 -0.046082996 -0.044322006 0.027110292
000090 2b 92 55 bc ba 32 a3 bc 14 92 19 bd c0 0a ed bb
       -0.013035337 -0.01992165 -0.037492827 -0.0072339475
0000a0 c6 fb 8f 3c a1 21 74 3d 71 ad 02 3d 8a 51 34 3d
       0.01757611 0.059602384 0.031903688 0.044023074
0000b0 65 7c 9c bc 77 b9 a0 bc d9 e6 e8 b9 73 35 49 3d
       -0.019102285 -0.019619687 -0.00044422483 0.04912324
0000c0 e4 2c 6e 3a 23 e7 b5 3a 9a d3 e3 3c 04 88 99 3c
       0.0009085669 0.0013878088 0.02781086 0.018741615
0000d0 95 c5 cb 3d b7 b1 8a bd 9c 57 6c 3d de 59 05 bd
       0.09949795 -0.06772178 0.05770074 -0.032556407
0000e0 62 c7 2b bd 7b 9c 90 3b 3b d0 aa 3d 90 27 f3 bd
       -0.041938193 0.004413185 0.08340498 -0.1187278
0000f0 f8 63 0b 3d 27 fa 1f bd be e6 fd 3c e9 84 bd b9
       0.034030885 -0.039056923 0.030993816 -0.00036147915
000100 99 ee 61 bd 37 93 8c 3c 94 d2 27 3c 53 1f f0 3c
       -0.055159185 0.017160041 0.010243077 0.029311812
000110 5e c3 8e bd 95 14 3d bd 50 39 a2 3d 13 7b e8 3c
       -0.06970857 -0.046162207 0.07921088 0.028378999
000120 16 84 51 bd 56 78 99 3d 00 1e 5f 3c 75 51 e1 3c
       -0.051151358 0.074936554 0.013617992 0.027504662
000130 d7 b3 4e 3d 40 86 af ba 82 d1 83 3d 75 c1 64 3d
       0.050464477 -0.001339145 0.06436445 0.055848558
000140 c0 a2 9f 3c 31 16 f7 bc 7a c4 e4 3c c2 a8 ae bd
       0.019486785 -0.030161949 0.027925719 -0.08528282
000150 de 5b 98 3d a7 02 00 3d 32 89 b0 3c e5 ca 31 3d
       0.07439397 0.03125253 0.021549795 0.043406386
000160 ed 2b 8d bd 64 ed 04 bd f6 fc d1 3c 30 41 a2 3b
       -0.06893144 -0.032452956 0.025633316 0.0049516186
000170 5c 52 2c bd e1 6c bd bc 1f 56 eb 3d 28 6c af 3d
       -0.04207073 -0.023123207 0.11491036 0.08565551
000180 87 8e 98 bd c4 c3 81 bc a4 11 26 bd 19 76 1a bd
       -0.0744906 -0.015840419 -0.040544167 -0.037710283
000190 6d b0 45 bc 51 87 48 bc 04 c7 2f 3d 10 16 0b 3d
       -0.012065989 -0.012239293 0.042914405 0.033956587
0001a0 4f 11 2c 3d 8e 3b 1c 3d 6c c4 ca 3c 73 fe 0a bd
       0.042008694 0.038142733 0.024751864 -0.033934068
0001b0 cd 7a a7 3c a6 10 02 3d f6 74 50 3d 82 cc 2e 3c
       0.020444298 0.03175416 0.050892793 0.010668876
0001c0 36 62 72 3d 07 61 3c bb 73 fe 84 3c 79 cf 2f 3d
       0.059175692 -0.0028744356 0.016234612 0.04292247
0001d0 ea e3 4a bb 76 02 9e 3d 79 bf 72 3d 29 50 46 bd
       -0.0030958601 0.07715313 0.059264634 -0.04841629
0001e0 fa b0 d6 39 76 22 51 bd e8 5d 79 bc 0b fd 01 bd
       0.0004094912 -0.051058255 -0.015220143 -0.03173546
0001f0 3f 94 44 bc 15 06 31 3d 61 9d 8b 3c 8a c0 9b bb
       -0.011998235 0.04321869 0.017042818 -0.004753177
000200 b7 22 99 bc ee 5e 52 3d 82 75 95 3c 76 e8 86 bd
       -0.018693311 0.051360063 0.018244509 -0.06587307
000210 67 6d b3 3b 8d c7 0e bd 5c 58 eb bd 3b db ac 3b
       0.0054756883 -0.034858275 -0.114914626 0.0052751577
000220 b2 81 46 3d 4d 21 a6 bc a9 69 98 3c 82 22 b0 bd
       0.04846353 -0.02027955 0.01860507 -0.08600332
000230 77 84 88 3b d2 c3 01 3d c4 97 92 bd 13 dd fc 3c
       0.0041661817 0.03168089 -0.07157853 0.030867135
000240 b8 e9 48 bd ac e9 5e 3c 57 c1 2b 3d a4 25 11 3c
       -0.049051017 0.013605516 0.04193243 0.008859072
000250 26 1e b7 bc b6 6e f1 3c 18 03 70 bd 80 34 1f bd
       -0.022353243 0.029471736 -0.0585967 -0.038868427
000260 02 b7 8e 3d cd 1b 87 3d e3 01 8e 3d 5e f3 cc 3d
       0.069685 0.065970995 0.069339536 0.10007356
000270 b6 de 21 3d 38 0f b0 3d 7e b4 f1 bc 64 56 4f bc
       0.039519034 0.08596653 -0.02950501 -0.0126548745
000280 8b 7e 17 3c 5d 8f fc 3c 97 26 60 bc ac 25 53 bc
       0.009246479 0.03083008 -0.013681076 -0.0128874
000290 c6 7f f9 bd 0f b8 0e 3d 07 c3 ce bc a7 3e 46 bc
       -0.12182574 0.0348435 -0.02523948 -0.012099898
0002a0 68 c9 5c 3c e8 94 a5 bd 59 dd 2b bd 57 5c b5 bc
       0.013475753 -0.08085042 -0.04195914 -0.022138758
0002b0 74 2f 3b bd 91 f3 1a 3d 7d 21 45 3d 27 66 62 bd
       -0.04569955 0.03782994 0.04812764 -0.0552732
0002c0 54 e6 cd bd 72 6d 9d bc 0a a1 7e 3d 8e ca bf bc
       -0.10053697 -0.019217227 0.062165298 -0.023412015
0002d0 55 2e 50 3d a5 96 51 bd cf d4 aa 3c 36 98 1f bd
       0.050825436 -0.051169056 0.020853428 -0.03896352
0002e0 71 76 4f bd 70 a4 cd bc d6 1b b4 3c c2 15 85 3d
       -0.050650064 -0.025102824 0.02198593 0.064982906
0002f0 6e 91 a4 3d ce cc 2f 3d a6 19 b7 3c 0c 4c 6e bd
       0.08035551 0.042919926 0.022351097 -0.058177993
000300 e0 94 80 3d 43 d2 1a 3c 99 d7 e4 bc 64 2c b0 bc
       0.06278396 0.009449544 -0.027934836 -0.021505542
000310 6f fe 4a bd 3a 97 01 3c 2e c1 4f 3d ca a4 ee bc
       -0.049559053 0.00790959 0.05072134 -0.029131312
000320 5c ce 5f bc c9 9d f0 bc 63 7f 3e bd 75 17 07 bc
       -0.01366004 -0.029372113 -0.046508204 -0.008245339
000330 b3 e0 3b bd ae 9c 35 bd 6c 56 15 3d 37 09 56 bc
       -0.045868587 -0.044338875 0.03645937 -0.01306372
000340 a3 75 a5 bc bf a3 19 bd 06 3b e6 bb ab ea 8e 3c
       -0.020197695 -0.037509676 -0.007026079 0.017445883
000350 ea 88 74 3d 18 e1 02 3d 6b f6 33 3d 00 46 9c bc
       0.059700884 0.031952947 0.043936174 -0.019076347
000360 52 54 a1 bc ae 00 e4 b9 ab 74 4b 3d 5c 03 72 3a
       -0.019693527 -0.00043488055 0.04967181 0.0009232068
000370 71 72 b3 3a bb 7d e3 3c 9a 1d 93 ba 6a eb c8 3d
       0.0013690722 0.027769914 -0.0011224032 0.09810527
000380 28 8b 8a bd 0e a2 6c 3d 55 95 05 bd 04 a4 29 bd
       -0.06764823 0.057771735 -0.032613117 -0.041416183
000390 72 74 86 3b 27 73 a9 3d ab 53 f3 bd cf 22 0b 3d
       0.004103237 0.08273917 -0.11881193 0.033968743
0003a0 2e 2d 1f bd 13 de fd 3c c4 ce b2 b9 6f f2 61 bd
       -0.038861446 0.030989682 -0.00034104858 -0.055162843
0003b0 0c 50 8e 3c 1e de d6 bc f4 0b f3 3c 5f a8 8e bd
       0.017372154 -0.02622896 0.029668786 -0.06965708
0003c0 41 b3 3c bd 0a 9c a5 3d d7 c9 e7 3c 40 da 50 bd
       -0.046069387 0.08086403 0.028294487 -0.05098939
0003d0 27 bb 97 3d 55 da 5f 3c 9c f0 e4 3c bd 6f 4e 3d
       0.07408743 0.013662894 0.027946763 0.05039953
0003e0 b1 4e ad ba f0 19 84 3d 9f 44 64 3d c8 37 60 3b
       -0.0013222304 0.0645026 0.055729505 0.0034212936
0003f0 5a 47 fa bc 2f c0 e1 3c 82 1a b4 bd a5 3b 98 3d
       -0.030551601 0.02755746 -0.087941185 0.07433251

bias f4 [4]
000000 df b9 16 3c f6 94 09 bb e2 25 75 3c 52 01 85 bc
       0.009199589 -0.0020993329 0.014962645 -0.016235981
